…
WARNING:tensorflow:From /home/ubuntu/anaconda3/envs/amazonei_tensorflow_p36/lib/python3.6/site-packages/tensorflow/python/keras/utils/losses_utils.py:170: to_float (from tensorflow.python.ops.math_ops) is deprecated and will be removed in a future version.
Instructions for updating:
Use tf.cast instead.
WARNING:tensorflow:From /home/ubuntu/anaconda3/envs/amazonei_tensorflow_p36/lib/python3.6/site-packages/tensorflow/python/ops/math_ops.py:3066: to_int32 (from tensorflow.python.ops.math_ops) is deprecated and will be removed in a future version.
Instructions for updating:
Use tf.cast instead.

_________________________________________________________________
Layer (type)                 Output Shape              Param #   
=================================================================
masking (Masking)            (None, 1213, 118)         0         
_________________________________________________________________
lstm (LSTM)                  (None, 1213, 150)         161400    
_________________________________________________________________
leaky_re_lu (LeakyReLU)      (None, 1213, 150)         0         
_________________________________________________________________
dropout (Dropout)            (None, 1213, 150)         0         
_________________________________________________________________
lstm_1 (LSTM)                (None, 1213, 100)         100400    
_________________________________________________________________
leaky_re_lu_1 (LeakyReLU)    (None, 1213, 100)         0         
_________________________________________________________________
dropout_1 (Dropout)          (None, 1213, 100)         0         
_________________________________________________________________
bottleneck (LSTM)            (None, 50)                30200     
_________________________________________________________________
leaky_re_lu_2 (LeakyReLU)    (None, 50)                0         
_________________________________________________________________
repeat_vector (RepeatVector) (None, 1213, 50)          0         
_________________________________________________________________
lstm_2 (LSTM)                (None, 1213, 50)          20200     
_________________________________________________________________
leaky_re_lu_3 (LeakyReLU)    (None, 1213, 50)          0         
_________________________________________________________________
lstm_3 (LSTM)                (None, 1213, 100)         60400     
_________________________________________________________________
leaky_re_lu_4 (LeakyReLU)    (None, 1213, 100)         0         
_________________________________________________________________
lstm_4 (LSTM)                (None, 1213, 150)         150600    
_________________________________________________________________
leaky_re_lu_5 (LeakyReLU)    (None, 1213, 150)         0         
_________________________________________________________________
time_distributed (TimeDistri (None, 1213, 118)         17818     
=================================================================
Total params: 541,018
Trainable params: 541,018
Non-trainable params: 0
_________________________________________________________________
None
Autoencoder Test:
Expected: 1.0                       Pred: 0.25169265270233154       Difference: 0.7483073472976685       
Expected: 0.625                     Pred: 0.12606337666511536       Difference: 0.49893662333488464      
…
00 - acc: 0.0131544/544 [==============================] - 11751s 22s/step - loss: 0.2200 - acc: 0.0131
WARNING:tensorflow:Error in loading the saved optimizer state. As a result, your model is starting with a freshly initialized optimizer.
['loss', 'acc']
[0.21998952329158783, 0.013120727]
_________________________________________________________________
Layer (type)                 Output Shape              Param #   
=================================================================
model (Model)                (None, 50)                292000    
_________________________________________________________________
dense_1 (Dense)              (None, 100)               5100      
_________________________________________________________________
dropout_2 (Dropout)          (None, 100)               0         
_________________________________________________________________
dense_2 (Dense)              (None, 100)               10100     
_________________________________________________________________
dropout_3 (Dropout)          (None, 100)               0         
_________________________________________________________________
dense_3 (Dense)              (None, 1)                 101       
=================================================================
Total params: 307,301
Trainable params: 307,301
Non-trainable params: 0
_________________________________________________________________
None
Classifier Test:
295936
544
Expected:  1.0 , got:  0.000008
Expected:  1.0 , got:  0.000003
Expected:  1.0 , got:  0.000008
Expected:  1.0 , got:  0.000008
Expected:  1.0 , got:  0.921489
…
