…
Test: i is: 541 and d's shape is: (1710, 123) and stacked_df's shape is: (541, 570, 123) and df1's shape is: (570, 123)
Test: We have concat the df
Test: i is: 542 and d's shape is: (1140, 123) and stacked_df's shape is: (542, 570, 123) and df1's shape is: (570, 123)
Test: We have concat the df
Test: i is: 543 and d's shape is: (570, 123) and stacked_df's shape is: (543, 570, 123) and df1's shape is: (570, 123)
Test: We have concat the df
(544, 570, 123)
[… _________________________________________________________________
Layer (type)                 Output Shape              Param #   
=================================================================
masking (Masking)            (None, 570, 123)          0         
_________________________________________________________________
lstm (LSTM)                  (None, 570, 150)          164400    
_________________________________________________________________
leaky_re_lu (LeakyReLU)      (None, 570, 150)          0         
_________________________________________________________________
dropout (Dropout)            (None, 570, 150)          0         
_________________________________________________________________
lstm_1 (LSTM)                (None, 570, 100)          100400    
_________________________________________________________________
leaky_re_lu_1 (LeakyReLU)    (None, 570, 100)          0         
_________________________________________________________________
dropout_1 (Dropout)          (None, 570, 100)          0         
_________________________________________________________________
bottleneck (LSTM)            (None, 50)                30200     
_________________________________________________________________
leaky_re_lu_2 (LeakyReLU)    (None, 50)                0         
_________________________________________________________________
repeat_vector (RepeatVector) (None, 570, 50)           0         
_________________________________________________________________
lstm_2 (LSTM)                (None, 570, 50)           20200     
_________________________________________________________________
leaky_re_lu_3 (LeakyReLU)    (None, 570, 50)           0         
_________________________________________________________________
lstm_3 (LSTM)                (None, 570, 100)          60400     
_________________________________________________________________
leaky_re_lu_4 (LeakyReLU)    (None, 570, 100)          0         
_________________________________________________________________
lstm_4 (LSTM)                (None, 570, 150)          150600    
_________________________________________________________________
leaky_re_lu_5 (LeakyReLU)    (None, 570, 150)          0         
_________________________________________________________________
time_distributed (TimeDistri (None, 570, 123)          18573     
=================================================================
Total params: 544,773
Trainable params: 544,773
Non-trainable params: 0
_________________________________________________________________
None
Autoencoder Test:
Expected: 1.0                       Pred: 0.9204897880554199        Difference: 0.07951021194458008      
Expected: 0.4                       Pred: 0.600772500038147         Difference: 0.20077250003814695      
…
95 - acc: 0.0015 544/544 [==============================] - 5420s 10s/step - loss: 0.1895 - acc: 0.0015
WARNING:tensorflow:Error in loading the saved optimizer state. As a result, your model is starting with a freshly initialized optimizer.
['loss', 'acc']
[0.18947893381118774, 0.0014609133]
_________________________________________________________________
Layer (type)                 Output Shape              Param #   
=================================================================
model (Model)                (None, 50)                295000    
_________________________________________________________________
dense_1 (Dense)              (None, 100)               5100      
_________________________________________________________________
dropout_2 (Dropout)          (None, 100)               0         
_________________________________________________________________
dense_2 (Dense)              (None, 100)               10100     
_________________________________________________________________
dropout_3 (Dropout)          (None, 100)               0         
_________________________________________________________________
dense_3 (Dense)              (None, 1)                 101       
=================================================================
Total params: 310,301
Trainable params: 310,301
Non-trainable params: 0
_________________________________________________________________
None
Classifier Test:
295936
544
Expected:  1.0 , got:  0.876928
Expected:  1.0 , got:  0.876899
Expected:  1.0 , got:  0.000007
Expected:  1.0 , got:  0.876896
Expected:  1.0 , got:  0.876910
…
