…
Test: i is: 544 and d's shape is: (3639, 118) and stacked_df's shape is: (544, 1213, 118) and df1's shape is: (1213, 118)
Test: We have concat the df
Test: i is: 545 and d's shape is: (2426, 118) and stacked_df's shape is: (545, 1213, 118) and df1's shape is: (1213, 118)
Test: We have concat the df
Test: i is: 546 and d's shape is: (1213, 118) and stacked_df's shape is: (546, 1213, 118) and df1's shape is: (1213, 118)
Test: We have concat the df
(547, 1213, 118)
[… _________________________________________________________________
Layer (type)                 Output Shape              Param #   
=================================================================
masking (Masking)            (None, 1213, 118)         0         
_________________________________________________________________
lstm (LSTM)                  (None, 1213, 150)         161400    
_________________________________________________________________
leaky_re_lu (LeakyReLU)      (None, 1213, 150)         0         
_________________________________________________________________
dropout (Dropout)            (None, 1213, 150)         0         
_________________________________________________________________
lstm_1 (LSTM)                (None, 1213, 100)         100400    
_________________________________________________________________
leaky_re_lu_1 (LeakyReLU)    (None, 1213, 100)         0         
_________________________________________________________________
dropout_1 (Dropout)          (None, 1213, 100)         0         
_________________________________________________________________
bottleneck (LSTM)            (None, 50)                30200     
_________________________________________________________________
leaky_re_lu_2 (LeakyReLU)    (None, 50)                0         
_________________________________________________________________
repeat_vector (RepeatVector) (None, 1213, 50)          0         
_________________________________________________________________
lstm_2 (LSTM)                (None, 1213, 50)          20200     
_________________________________________________________________
leaky_re_lu_3 (LeakyReLU)    (None, 1213, 50)          0         
_________________________________________________________________
lstm_3 (LSTM)                (None, 1213, 100)         60400     
_________________________________________________________________
leaky_re_lu_4 (LeakyReLU)    (None, 1213, 100)         0         
_________________________________________________________________
lstm_4 (LSTM)                (None, 1213, 150)         150600    
_________________________________________________________________
leaky_re_lu_5 (LeakyReLU)    (None, 1213, 150)         0         
_________________________________________________________________
time_distributed (TimeDistri (None, 1213, 118)         17818     
=================================================================
Total params: 541,018
Trainable params: 541,018
Non-trainable params: 0
_________________________________________________________________
None
Autoencoder Test:
Expected: 1.0                       Pred: 0.23240555822849274       Difference: 0.7675944417715073       
Expected: 0.625                     Pred: 0.11462067812681198       Difference: 0.510379321873188        
…
36 - acc: 0.0152547/547 [==============================] - 14799s 27s/step - loss: 0.2036 - acc: 0.0152
WARNING:tensorflow:Error in loading the saved optimizer state. As a result, your model is starting with a freshly initialized optimizer.
['loss', 'acc']
[0.20358248054981232, 0.015167796]
_________________________________________________________________
Layer (type)                 Output Shape              Param #   
=================================================================
model (Model)                (None, 50)                292000    
_________________________________________________________________
dense_1 (Dense)              (None, 100)               5100      
_________________________________________________________________
dropout_2 (Dropout)          (None, 100)               0         
_________________________________________________________________
dense_2 (Dense)              (None, 100)               10100     
_________________________________________________________________
dropout_3 (Dropout)          (None, 100)               0         
_________________________________________________________________
dense_3 (Dense)              (None, 1)                 101       
=================================================================
Total params: 307,301
Trainable params: 307,301
Non-trainable params: 0
_________________________________________________________________
None
Classifier Test:
299209
547
Expected:  1.0 , got:  0.000003
Expected:  1.0 , got:  0.000008
Expected:  1.0 , got:  0.823805
Expected:  1.0 , got:  0.000008
Expected:  1.0 , got:  0.000008
…
